#map = affine_map<(d0) -> (d0 + 1)>
#map1 = affine_map<(d0) -> (d0 + 2)>
#map2 = affine_map<(d0) -> (d0 + 3)>
module {
  func.func @kernel_deriche(%arg0: i32, %arg1: i32, %arg2: f32, %arg3: memref<?x64xf32>, %arg4: memref<?x64xf32>, %arg5: memref<?x64xf32>, %arg6: memref<?x64xf32>) {
    %cst = arith.constant 0.000000e+00 : f32
    %cst_0 = arith.constant -2.000000e+00 : f32
    %cst_1 = arith.constant 2.000000e+00 : f32
    %cst_2 = arith.constant 1.000000e+00 : f32
    %0 = llvm.mlir.undef : f32
    %alloca = memref.alloca() : memref<f32>
    affine.store %0, %alloca[] : memref<f32>
    %alloca_3 = memref.alloca() : memref<f32>
    affine.store %0, %alloca_3[] : memref<f32>
    %alloca_4 = memref.alloca() : memref<f32>
    affine.store %0, %alloca_4[] : memref<f32>
    %alloca_5 = memref.alloca() : memref<f32>
    affine.store %0, %alloca_5[] : memref<f32>
    %alloca_6 = memref.alloca() : memref<f32>
    affine.store %0, %alloca_6[] : memref<f32>
    %alloca_7 = memref.alloca() : memref<f32>
    affine.store %0, %alloca_7[] : memref<f32>
    %alloca_8 = memref.alloca() : memref<f32>
    affine.store %0, %alloca_8[] : memref<f32>
    %alloca_9 = memref.alloca() : memref<f32>
    affine.store %0, %alloca_9[] : memref<f32>
    %alloca_10 = memref.alloca() : memref<f32>
    affine.store %0, %alloca_10[] : memref<f32>
    %alloca_11 = memref.alloca() : memref<f32>
    affine.store %0, %alloca_11[] : memref<f32>
    %1 = arith.negf %arg2 : f32
    %2 = math.exp %1 : f32
    %3 = arith.subf %cst_2, %2 : f32
    %4 = arith.mulf %3, %3 : f32
    %5 = arith.mulf %arg2, %2 : f32
    %6 = arith.mulf %5, %cst_1 : f32
    %7 = arith.addf %6, %cst_2 : f32
    %8 = arith.mulf %arg2, %cst_1 : f32
    %9 = math.exp %8 : f32
    %10 = arith.subf %7, %9 : f32
    %11 = arith.divf %4, %10 : f32
    %12 = arith.mulf %11, %2 : f32
    %13 = arith.subf %arg2, %cst_2 : f32
    %14 = arith.mulf %12, %13 : f32
    %15 = arith.addf %arg2, %cst_2 : f32
    %16 = arith.mulf %12, %15 : f32
    %17 = arith.negf %11 : f32
    %18 = arith.mulf %arg2, %cst_0 : f32
    %19 = math.exp %18 : f32
    %20 = arith.mulf %17, %19 : f32
    %21 = math.powf %cst_1, %1 : f32
    %22 = arith.negf %19 : f32
    affine.for %arg7 = 0 to 64 {
      affine.store %cst, %alloca_9[] : memref<f32>
      affine.store %cst, %alloca_8[] : memref<f32>
      affine.store %cst, %alloca_11[] : memref<f32>
      affine.for %arg8 = 0 to 64 step 4 {
        %23 = affine.load %arg3[%arg7, %arg8] : memref<?x64xf32>
        %24 = arith.mulf %11, %23 : f32
        %25 = affine.load %alloca_11[] : memref<f32>
        %26 = arith.mulf %14, %25 : f32
        %27 = arith.addf %24, %26 : f32
        %28 = affine.load %alloca_9[] : memref<f32>
        %29 = arith.mulf %21, %28 : f32
        %30 = arith.addf %27, %29 : f32
        %31 = affine.load %alloca_8[] : memref<f32>
        %32 = arith.mulf %22, %31 : f32
        %33 = arith.addf %30, %32 : f32
        affine.store %33, %arg5[%arg7, %arg8] : memref<?x64xf32>
        %34 = affine.load %arg3[%arg7, %arg8] : memref<?x64xf32>
        affine.store %34, %alloca_11[] : memref<f32>
        affine.store %28, %alloca_8[] : memref<f32>
        %35 = affine.load %arg5[%arg7, %arg8] : memref<?x64xf32>
        affine.store %35, %alloca_9[] : memref<f32>
        %36 = affine.apply #map(%arg8)
        %37 = affine.load %arg3[%arg7, %36] : memref<?x64xf32>
        %38 = arith.mulf %11, %37 : f32
        %39 = affine.load %alloca_11[] : memref<f32>
        %40 = arith.mulf %14, %39 : f32
        %41 = arith.addf %38, %40 : f32
        %42 = affine.load %alloca_9[] : memref<f32>
        %43 = arith.mulf %21, %42 : f32
        %44 = arith.addf %41, %43 : f32
        %45 = affine.load %alloca_8[] : memref<f32>
        %46 = arith.mulf %22, %45 : f32
        %47 = arith.addf %44, %46 : f32
        affine.store %47, %arg5[%arg7, %36] : memref<?x64xf32>
        %48 = affine.load %arg3[%arg7, %36] : memref<?x64xf32>
        affine.store %48, %alloca_11[] : memref<f32>
        affine.store %42, %alloca_8[] : memref<f32>
        %49 = affine.load %arg5[%arg7, %36] : memref<?x64xf32>
        affine.store %49, %alloca_9[] : memref<f32>
        %50 = affine.apply #map1(%arg8)
        %51 = affine.load %arg3[%arg7, %50] : memref<?x64xf32>
        %52 = arith.mulf %11, %51 : f32
        %53 = affine.load %alloca_11[] : memref<f32>
        %54 = arith.mulf %14, %53 : f32
        %55 = arith.addf %52, %54 : f32
        %56 = affine.load %alloca_9[] : memref<f32>
        %57 = arith.mulf %21, %56 : f32
        %58 = arith.addf %55, %57 : f32
        %59 = affine.load %alloca_8[] : memref<f32>
        %60 = arith.mulf %22, %59 : f32
        %61 = arith.addf %58, %60 : f32
        affine.store %61, %arg5[%arg7, %50] : memref<?x64xf32>
        %62 = affine.load %arg3[%arg7, %50] : memref<?x64xf32>
        affine.store %62, %alloca_11[] : memref<f32>
        affine.store %56, %alloca_8[] : memref<f32>
        %63 = affine.load %arg5[%arg7, %50] : memref<?x64xf32>
        affine.store %63, %alloca_9[] : memref<f32>
        %64 = affine.apply #map2(%arg8)
        %65 = affine.load %arg3[%arg7, %64] : memref<?x64xf32>
        %66 = arith.mulf %11, %65 : f32
        %67 = affine.load %alloca_11[] : memref<f32>
        %68 = arith.mulf %14, %67 : f32
        %69 = arith.addf %66, %68 : f32
        %70 = affine.load %alloca_9[] : memref<f32>
        %71 = arith.mulf %21, %70 : f32
        %72 = arith.addf %69, %71 : f32
        %73 = affine.load %alloca_8[] : memref<f32>
        %74 = arith.mulf %22, %73 : f32
        %75 = arith.addf %72, %74 : f32
        affine.store %75, %arg5[%arg7, %64] : memref<?x64xf32>
        %76 = affine.load %arg3[%arg7, %64] : memref<?x64xf32>
        affine.store %76, %alloca_11[] : memref<f32>
        affine.store %70, %alloca_8[] : memref<f32>
        %77 = affine.load %arg5[%arg7, %64] : memref<?x64xf32>
        affine.store %77, %alloca_9[] : memref<f32>
      }
    }
    affine.for %arg7 = 0 to 64 {
      affine.store %cst, %alloca_3[] : memref<f32>
      affine.store %cst, %alloca[] : memref<f32>
      affine.store %cst, %alloca_7[] : memref<f32>
      affine.store %cst, %alloca_6[] : memref<f32>
      affine.for %arg8 = 0 to 64 step 4 {
        %23 = affine.load %alloca_7[] : memref<f32>
        %24 = arith.mulf %16, %23 : f32
        %25 = affine.load %alloca_6[] : memref<f32>
        %26 = arith.mulf %20, %25 : f32
        %27 = arith.addf %24, %26 : f32
        %28 = affine.load %alloca_3[] : memref<f32>
        %29 = arith.mulf %21, %28 : f32
        %30 = arith.addf %27, %29 : f32
        %31 = affine.load %alloca[] : memref<f32>
        %32 = arith.mulf %22, %31 : f32
        %33 = arith.addf %30, %32 : f32
        affine.store %33, %arg6[%arg7, -%arg8 + 63] : memref<?x64xf32>
        affine.store %23, %alloca_6[] : memref<f32>
        %34 = affine.load %arg3[%arg7, -%arg8 + 63] : memref<?x64xf32>
        affine.store %34, %alloca_7[] : memref<f32>
        affine.store %28, %alloca[] : memref<f32>
        %35 = affine.load %arg6[%arg7, -%arg8 + 63] : memref<?x64xf32>
        affine.store %35, %alloca_3[] : memref<f32>
        %36 = affine.apply #map(%arg8)
        %37 = affine.load %alloca_7[] : memref<f32>
        %38 = arith.mulf %16, %37 : f32
        %39 = affine.load %alloca_6[] : memref<f32>
        %40 = arith.mulf %20, %39 : f32
        %41 = arith.addf %38, %40 : f32
        %42 = affine.load %alloca_3[] : memref<f32>
        %43 = arith.mulf %21, %42 : f32
        %44 = arith.addf %41, %43 : f32
        %45 = affine.load %alloca[] : memref<f32>
        %46 = arith.mulf %22, %45 : f32
        %47 = arith.addf %44, %46 : f32
        affine.store %47, %arg6[%arg7, -%36 + 63] : memref<?x64xf32>
        affine.store %37, %alloca_6[] : memref<f32>
        %48 = affine.load %arg3[%arg7, -%36 + 63] : memref<?x64xf32>
        affine.store %48, %alloca_7[] : memref<f32>
        affine.store %42, %alloca[] : memref<f32>
        %49 = affine.load %arg6[%arg7, -%36 + 63] : memref<?x64xf32>
        affine.store %49, %alloca_3[] : memref<f32>
        %50 = affine.apply #map1(%arg8)
        %51 = affine.load %alloca_7[] : memref<f32>
        %52 = arith.mulf %16, %51 : f32
        %53 = affine.load %alloca_6[] : memref<f32>
        %54 = arith.mulf %20, %53 : f32
        %55 = arith.addf %52, %54 : f32
        %56 = affine.load %alloca_3[] : memref<f32>
        %57 = arith.mulf %21, %56 : f32
        %58 = arith.addf %55, %57 : f32
        %59 = affine.load %alloca[] : memref<f32>
        %60 = arith.mulf %22, %59 : f32
        %61 = arith.addf %58, %60 : f32
        affine.store %61, %arg6[%arg7, -%50 + 63] : memref<?x64xf32>
        affine.store %51, %alloca_6[] : memref<f32>
        %62 = affine.load %arg3[%arg7, -%50 + 63] : memref<?x64xf32>
        affine.store %62, %alloca_7[] : memref<f32>
        affine.store %56, %alloca[] : memref<f32>
        %63 = affine.load %arg6[%arg7, -%50 + 63] : memref<?x64xf32>
        affine.store %63, %alloca_3[] : memref<f32>
        %64 = affine.apply #map2(%arg8)
        %65 = affine.load %alloca_7[] : memref<f32>
        %66 = arith.mulf %16, %65 : f32
        %67 = affine.load %alloca_6[] : memref<f32>
        %68 = arith.mulf %20, %67 : f32
        %69 = arith.addf %66, %68 : f32
        %70 = affine.load %alloca_3[] : memref<f32>
        %71 = arith.mulf %21, %70 : f32
        %72 = arith.addf %69, %71 : f32
        %73 = affine.load %alloca[] : memref<f32>
        %74 = arith.mulf %22, %73 : f32
        %75 = arith.addf %72, %74 : f32
        affine.store %75, %arg6[%arg7, -%64 + 63] : memref<?x64xf32>
        affine.store %65, %alloca_6[] : memref<f32>
        %76 = affine.load %arg3[%arg7, -%64 + 63] : memref<?x64xf32>
        affine.store %76, %alloca_7[] : memref<f32>
        affine.store %70, %alloca[] : memref<f32>
        %77 = affine.load %arg6[%arg7, -%64 + 63] : memref<?x64xf32>
        affine.store %77, %alloca_3[] : memref<f32>
      }
    }
    affine.for %arg7 = 0 to 64 {
      affine.for %arg8 = 0 to 64 step 4 {
        %23 = affine.load %arg5[%arg7, %arg8] : memref<?x64xf32>
        %24 = affine.load %arg6[%arg7, %arg8] : memref<?x64xf32>
        %25 = arith.addf %23, %24 : f32
        affine.store %25, %arg4[%arg7, %arg8] : memref<?x64xf32>
        %26 = affine.apply #map(%arg8)
        %27 = affine.load %arg5[%arg7, %26] : memref<?x64xf32>
        %28 = affine.load %arg6[%arg7, %26] : memref<?x64xf32>
        %29 = arith.addf %27, %28 : f32
        affine.store %29, %arg4[%arg7, %26] : memref<?x64xf32>
        %30 = affine.apply #map1(%arg8)
        %31 = affine.load %arg5[%arg7, %30] : memref<?x64xf32>
        %32 = affine.load %arg6[%arg7, %30] : memref<?x64xf32>
        %33 = arith.addf %31, %32 : f32
        affine.store %33, %arg4[%arg7, %30] : memref<?x64xf32>
        %34 = affine.apply #map2(%arg8)
        %35 = affine.load %arg5[%arg7, %34] : memref<?x64xf32>
        %36 = affine.load %arg6[%arg7, %34] : memref<?x64xf32>
        %37 = arith.addf %35, %36 : f32
        affine.store %37, %arg4[%arg7, %34] : memref<?x64xf32>
      }
    }
    affine.for %arg7 = 0 to 64 {
      affine.store %cst, %alloca_10[] : memref<f32>
      affine.store %cst, %alloca_9[] : memref<f32>
      affine.store %cst, %alloca_8[] : memref<f32>
      affine.for %arg8 = 0 to 64 step 4 {
        %23 = affine.load %arg4[%arg8, %arg7] : memref<?x64xf32>
        %24 = arith.mulf %11, %23 : f32
        %25 = affine.load %alloca_10[] : memref<f32>
        %26 = arith.mulf %14, %25 : f32
        %27 = arith.addf %24, %26 : f32
        %28 = affine.load %alloca_9[] : memref<f32>
        %29 = arith.mulf %21, %28 : f32
        %30 = arith.addf %27, %29 : f32
        %31 = affine.load %alloca_8[] : memref<f32>
        %32 = arith.mulf %22, %31 : f32
        %33 = arith.addf %30, %32 : f32
        affine.store %33, %arg5[%arg8, %arg7] : memref<?x64xf32>
        %34 = affine.load %arg4[%arg8, %arg7] : memref<?x64xf32>
        affine.store %34, %alloca_10[] : memref<f32>
        affine.store %28, %alloca_8[] : memref<f32>
        %35 = affine.load %arg5[%arg8, %arg7] : memref<?x64xf32>
        affine.store %35, %alloca_9[] : memref<f32>
        %36 = affine.apply #map(%arg8)
        %37 = affine.load %arg4[%36, %arg7] : memref<?x64xf32>
        %38 = arith.mulf %11, %37 : f32
        %39 = affine.load %alloca_10[] : memref<f32>
        %40 = arith.mulf %14, %39 : f32
        %41 = arith.addf %38, %40 : f32
        %42 = affine.load %alloca_9[] : memref<f32>
        %43 = arith.mulf %21, %42 : f32
        %44 = arith.addf %41, %43 : f32
        %45 = affine.load %alloca_8[] : memref<f32>
        %46 = arith.mulf %22, %45 : f32
        %47 = arith.addf %44, %46 : f32
        affine.store %47, %arg5[%36, %arg7] : memref<?x64xf32>
        %48 = affine.load %arg4[%36, %arg7] : memref<?x64xf32>
        affine.store %48, %alloca_10[] : memref<f32>
        affine.store %42, %alloca_8[] : memref<f32>
        %49 = affine.load %arg5[%36, %arg7] : memref<?x64xf32>
        affine.store %49, %alloca_9[] : memref<f32>
        %50 = affine.apply #map1(%arg8)
        %51 = affine.load %arg4[%50, %arg7] : memref<?x64xf32>
        %52 = arith.mulf %11, %51 : f32
        %53 = affine.load %alloca_10[] : memref<f32>
        %54 = arith.mulf %14, %53 : f32
        %55 = arith.addf %52, %54 : f32
        %56 = affine.load %alloca_9[] : memref<f32>
        %57 = arith.mulf %21, %56 : f32
        %58 = arith.addf %55, %57 : f32
        %59 = affine.load %alloca_8[] : memref<f32>
        %60 = arith.mulf %22, %59 : f32
        %61 = arith.addf %58, %60 : f32
        affine.store %61, %arg5[%50, %arg7] : memref<?x64xf32>
        %62 = affine.load %arg4[%50, %arg7] : memref<?x64xf32>
        affine.store %62, %alloca_10[] : memref<f32>
        affine.store %56, %alloca_8[] : memref<f32>
        %63 = affine.load %arg5[%50, %arg7] : memref<?x64xf32>
        affine.store %63, %alloca_9[] : memref<f32>
        %64 = affine.apply #map2(%arg8)
        %65 = affine.load %arg4[%64, %arg7] : memref<?x64xf32>
        %66 = arith.mulf %11, %65 : f32
        %67 = affine.load %alloca_10[] : memref<f32>
        %68 = arith.mulf %14, %67 : f32
        %69 = arith.addf %66, %68 : f32
        %70 = affine.load %alloca_9[] : memref<f32>
        %71 = arith.mulf %21, %70 : f32
        %72 = arith.addf %69, %71 : f32
        %73 = affine.load %alloca_8[] : memref<f32>
        %74 = arith.mulf %22, %73 : f32
        %75 = arith.addf %72, %74 : f32
        affine.store %75, %arg5[%64, %arg7] : memref<?x64xf32>
        %76 = affine.load %arg4[%64, %arg7] : memref<?x64xf32>
        affine.store %76, %alloca_10[] : memref<f32>
        affine.store %70, %alloca_8[] : memref<f32>
        %77 = affine.load %arg5[%64, %arg7] : memref<?x64xf32>
        affine.store %77, %alloca_9[] : memref<f32>
      }
    }
    affine.for %arg7 = 0 to 64 {
      affine.store %cst, %alloca_5[] : memref<f32>
      affine.store %cst, %alloca_4[] : memref<f32>
      affine.store %cst, %alloca_3[] : memref<f32>
      affine.store %cst, %alloca[] : memref<f32>
      affine.for %arg8 = 0 to 64 step 4 {
        %23 = affine.load %alloca_5[] : memref<f32>
        %24 = arith.mulf %16, %23 : f32
        %25 = affine.load %alloca_4[] : memref<f32>
        %26 = arith.mulf %20, %25 : f32
        %27 = arith.addf %24, %26 : f32
        %28 = affine.load %alloca_3[] : memref<f32>
        %29 = arith.mulf %21, %28 : f32
        %30 = arith.addf %27, %29 : f32
        %31 = affine.load %alloca[] : memref<f32>
        %32 = arith.mulf %22, %31 : f32
        %33 = arith.addf %30, %32 : f32
        affine.store %33, %arg6[-%arg8 + 63, %arg7] : memref<?x64xf32>
        affine.store %23, %alloca_4[] : memref<f32>
        %34 = affine.load %arg4[-%arg8 + 63, %arg7] : memref<?x64xf32>
        affine.store %34, %alloca_5[] : memref<f32>
        affine.store %28, %alloca[] : memref<f32>
        %35 = affine.load %arg6[-%arg8 + 63, %arg7] : memref<?x64xf32>
        affine.store %35, %alloca_3[] : memref<f32>
        %36 = affine.apply #map(%arg8)
        %37 = affine.load %alloca_5[] : memref<f32>
        %38 = arith.mulf %16, %37 : f32
        %39 = affine.load %alloca_4[] : memref<f32>
        %40 = arith.mulf %20, %39 : f32
        %41 = arith.addf %38, %40 : f32
        %42 = affine.load %alloca_3[] : memref<f32>
        %43 = arith.mulf %21, %42 : f32
        %44 = arith.addf %41, %43 : f32
        %45 = affine.load %alloca[] : memref<f32>
        %46 = arith.mulf %22, %45 : f32
        %47 = arith.addf %44, %46 : f32
        affine.store %47, %arg6[-%36 + 63, %arg7] : memref<?x64xf32>
        affine.store %37, %alloca_4[] : memref<f32>
        %48 = affine.load %arg4[-%36 + 63, %arg7] : memref<?x64xf32>
        affine.store %48, %alloca_5[] : memref<f32>
        affine.store %42, %alloca[] : memref<f32>
        %49 = affine.load %arg6[-%36 + 63, %arg7] : memref<?x64xf32>
        affine.store %49, %alloca_3[] : memref<f32>
        %50 = affine.apply #map1(%arg8)
        %51 = affine.load %alloca_5[] : memref<f32>
        %52 = arith.mulf %16, %51 : f32
        %53 = affine.load %alloca_4[] : memref<f32>
        %54 = arith.mulf %20, %53 : f32
        %55 = arith.addf %52, %54 : f32
        %56 = affine.load %alloca_3[] : memref<f32>
        %57 = arith.mulf %21, %56 : f32
        %58 = arith.addf %55, %57 : f32
        %59 = affine.load %alloca[] : memref<f32>
        %60 = arith.mulf %22, %59 : f32
        %61 = arith.addf %58, %60 : f32
        affine.store %61, %arg6[-%50 + 63, %arg7] : memref<?x64xf32>
        affine.store %51, %alloca_4[] : memref<f32>
        %62 = affine.load %arg4[-%50 + 63, %arg7] : memref<?x64xf32>
        affine.store %62, %alloca_5[] : memref<f32>
        affine.store %56, %alloca[] : memref<f32>
        %63 = affine.load %arg6[-%50 + 63, %arg7] : memref<?x64xf32>
        affine.store %63, %alloca_3[] : memref<f32>
        %64 = affine.apply #map2(%arg8)
        %65 = affine.load %alloca_5[] : memref<f32>
        %66 = arith.mulf %16, %65 : f32
        %67 = affine.load %alloca_4[] : memref<f32>
        %68 = arith.mulf %20, %67 : f32
        %69 = arith.addf %66, %68 : f32
        %70 = affine.load %alloca_3[] : memref<f32>
        %71 = arith.mulf %21, %70 : f32
        %72 = arith.addf %69, %71 : f32
        %73 = affine.load %alloca[] : memref<f32>
        %74 = arith.mulf %22, %73 : f32
        %75 = arith.addf %72, %74 : f32
        affine.store %75, %arg6[-%64 + 63, %arg7] : memref<?x64xf32>
        affine.store %65, %alloca_4[] : memref<f32>
        %76 = affine.load %arg4[-%64 + 63, %arg7] : memref<?x64xf32>
        affine.store %76, %alloca_5[] : memref<f32>
        affine.store %70, %alloca[] : memref<f32>
        %77 = affine.load %arg6[-%64 + 63, %arg7] : memref<?x64xf32>
        affine.store %77, %alloca_3[] : memref<f32>
      }
    }
    affine.for %arg7 = 0 to 64 {
      affine.for %arg8 = 0 to 64 step 4 {
        %23 = affine.load %arg5[%arg7, %arg8] : memref<?x64xf32>
        %24 = affine.load %arg6[%arg7, %arg8] : memref<?x64xf32>
        %25 = arith.addf %23, %24 : f32
        affine.store %25, %arg4[%arg7, %arg8] : memref<?x64xf32>
        %26 = affine.apply #map(%arg8)
        %27 = affine.load %arg5[%arg7, %26] : memref<?x64xf32>
        %28 = affine.load %arg6[%arg7, %26] : memref<?x64xf32>
        %29 = arith.addf %27, %28 : f32
        affine.store %29, %arg4[%arg7, %26] : memref<?x64xf32>
        %30 = affine.apply #map1(%arg8)
        %31 = affine.load %arg5[%arg7, %30] : memref<?x64xf32>
        %32 = affine.load %arg6[%arg7, %30] : memref<?x64xf32>
        %33 = arith.addf %31, %32 : f32
        affine.store %33, %arg4[%arg7, %30] : memref<?x64xf32>
        %34 = affine.apply #map2(%arg8)
        %35 = affine.load %arg5[%arg7, %34] : memref<?x64xf32>
        %36 = affine.load %arg6[%arg7, %34] : memref<?x64xf32>
        %37 = arith.addf %35, %36 : f32
        affine.store %37, %arg4[%arg7, %34] : memref<?x64xf32>
      }
    }
    return
  }
}

